app/src/main/ml/sysproj.tflite (tflite, 408336 bytes, 4 tensors)

sequential_2/dense_4/MatMul/ReadVariableOp/transpose f4 [128, 784]
00000000: 83b6 9abd 9a79 6b3d f62b 53bd fe00 b6bc
00000010: 70d9 3fbc 826e 99bc 8c98 04bd aaca a6bc
00000020: c5ea 85bd 0642 babc 5e10 163d f335 26bd
00000030: 6d3a 9ebd fa73 89bd 1cc0 083d 548b 33bd
00000040: 5c1c e63c bb40 37bd a32e 12bd be70 0f3d
00000050: 700b cdbb 9f46 23bd d212 a5bd 026e 6c3d
00000060: a05c 20bd 47fc 8cbd a0d2 83bb 26d8 4c3d
00000070: 00cd 773b 9648 a1bd 0c29 d83c 6d7a 923d
00000080: 589b 1d3d 906d 86bc 5743 12bd 50ed 923c
00000090: e05a 483b b241 6fbd 105d c1bb 60c1 ff3b
000000a0: 16a1 793d 62d9 343d 6e2d 9dbd dc09 ac3c
000000b0: 86c3 453d c827 a2bd 007d 97bb 158e 00bd
000000c0: be4d 7c3d 8894 a53c 20b7 16bb dfc9 02bd
000000d0: f197 953d 7a92 683d ccc1 813c a21b 67bd
000000e0: 407f f33a d0ed b4bb 00a1 273d d80b 273c
000000f0: ce4f 3cbd c06c 56bb e377 89bd c94d 3abd
00000100: 0f33 86bd 7653 493d 1211 533d feb9 92bd
00000110: 881e fa3c b387 98bd a0ca 6fbc a8de f93c
00000120: 80d9 aabb 7472 903c b42e edbc 90ff 12bc
00000130: db64 833d 6423 173d 8b25 02bd e0cf 6dbd
00000140: 4eab 643d 8a96 0b3d cd05 4cbd a461 ab3c
00000150: 1edf 50bd 6e42 debc 0078 a43c 5712 993d
00000160: e60c 9abd 8754 a13d 506c 82bd e848 2a3d
00000170: fc19 063d 1ead 5c3d faad 2ebd 3283 6f3d
00000180: 8a9b 263d a8dd 753c aa2e a5bd 9779 09bd
00000190: 5777 813d d044 fe3b 1671 4e3d d8c0 0e3c
000001a0: 9ff7 31bd 0080 a0bd e005 c03c 2c33 eabc
000001b0: 98b9 1a3c aa4a 693d d824 9fbd d887 89bc
000001c0: bfec 853d 6c39 273d a887 45bc 6239 2f3d
000001d0: 160d 4e3d 9020 61bc 4c47 4cbd ca9c 513d
000001e0: 59c3 79bd 9a90 4b3d 77c7 8e3d 3650 03bd
000001f0: fc9c dc3c 1078 093c 3acd 2b3d de72 563d
00000200: 3b8c 88bd 3cc9 28bd ecc1 fe3c 2845 2dbd
00000210: a08c 2b3d 8ada 6a3d 865f 4f3d a270 9abd
00000220: 9867 d83c ca16 9bbd b6b4 82bd 0c1b 8bbd
00000230: 60b2 d9bb 1598 8fbd a47d cd3c 7cd7 a33c
00000240: 33f4 6bbd 9323 99bd 1eb6 463d c5f7 963d
00000250: 733b 00bd f622 dbbc 94c3 d7bc 0767 843d
00000260: a001 f4bb 5053 47bd 40d2 05bb c6dc 3d3d
00000270: db74 843d c9ad 54bd 4c2e bebc 503e 0fbd
00000280: 2217 0bbd c2c7 583d 7200 82bd 08aa 0a3c
00000290: 6486 8cbc ce52 663d 7861 7cbc f800 00bd
000002a0: de83 4f3d 8072 7b3c bacf 513d 6af0 65bd
000002b0: c5cc 80bd 24af 4cbd c4f1 8a3c 5e76 94bd
000002c0: e0a1 c73c 86ef 93bd 7468 093d 0064 fb3b
000002d0: 7080 5bbc b064 09bc c1d7 9d3d e83d 263c
000002e0: 2c2c c23c 6237 30bd 3c6f 2e3d a91c 14bd
000002f0: a887 89bd 5fab 9c3d 45f4 87bd 40d3 5a3b
00000300: 6492 c6bc 4074 163b e67a a3bc bacb 323d
00000310: 08af cebc e46f 0e3d 982c 53bd c087 42bb
00000320: a082 283b a047 10bd 48bb 8bbd 34db a1bc
00000330: d452 92bc 7080 913c 5c46 9cbc 49bf 10bd
00000340: 02a4 653d a3db 02bd 8589 a4bd a241 7f3d
00000350: 48b7 013c 4c5d 95bc 5064 953c 4eb0 cdbc
00000360: ee1e 99bd 8af0 6a3d d6da 703d 52df 253d
00000370: e069 0a3c 4864 74bd 0e0f 263d 62e4 0a3d
00000380: 2d1c 8b3d 2013 b3bc d332 843d 0035 08bc
00000390: 4030 373c 32e4 9cbc 4ac0 443d 8fa8 863d
000003a0: 65d0 883d 3e3d 0f3d f13b 28bd a882 5a3c
000003b0: b676 553d 7358 2fbd f0f8 87bc 9257 2e3d
000003c0: c0d4 203d 3364 853d eb90 813d 496e 15bd
000003d0: 30a8 abbb 5665 353d 482f 72bd 4031 ae3a
000003e0: 4c61 b7bc 48c6 283c d0a9 d6bb 427e 403d
000003f0: 8ef4 263d 18d6 8b3c b066 93bd 70e1 36bc
-0.075543426 0.057489015 -0.051555596 -0.02221727 -0.011709556 -0.018729452 -0.032372043 -0.02036031
-0.06538919 -0.02273656 0.036636703 -0.040578794 -0.077259876 -0.06711574 0.033386335 -0.043834046
0.028089695 -0.044739466 -0.035689007 0.03501963 -0.006257467 -0.03986227 -0.0806023 0.0577221
-0.039150834 -0.068840556 -0.004022911 0.050010823 0.0037811399 -0.07875173 0.02638676 0.07152257
0.038478225 -0.016409665 -0.03570875 0.017935425 0.0030571744 -0.05841226 -0.0059009865 0.0078050345
0.06094464 0.044152625 -0.07674681 0.021000795 0.04828217 -0.07917744 -0.0046230555 -0.0313855
0.06159758 0.020212427 -0.0022997335 -0.0319308 0.07304371 0.056780316 0.01583948 -0.056422837
0.0018577352 -0.0055215135 0.040925026 0.010195695 -0.045974545 -0.0032718629 -0.0671232 -0.045484338
-0.065527074 0.04915186 0.05152995 -0.071643814 0.030532137 -0.074477576 -0.014635712 0.030501679
-0.0052139163 0.0176327 -0.028952934 -0.008972064 0.06415721 0.036898986 -0.031774085 -0.058059573
0.05582743 0.034079112 -0.04981022 0.020920582 -0.05099403 -0.027131286 0.020076752 0.07474201
-0.075219914 0.078774504 -0.06368315 0.041573435 0.032739624 0.053876035 -0.042646386 0.058474727
0.040675677 0.01500646 -0.08065541 -0.033563223 0.063215904 0.007759668 0.050400816 0.00871297
-0.04344904 -0.07836914 0.023440301 -0.028588854 0.009443663 0.05695597 -0.07770699 -0.016788408
0.06539296 0.040826246 -0.012056269 0.042779334 0.05030545 -0.013740674 -0.04987268 0.051174916
-0.060977314 0.04969845 0.06971639 -0.032058917 0.026930325 0.008390442 0.041943766 0.05235564
-0.06667372 -0.041207537 0.031098329 -0.04230228 0.041882157 0.05733732 0.050628208 -0.07541014
0.026416585 -0.07572706 -0.06382124 -0.06792268 -0.0066435784 -0.07011429 0.025084324 0.020000212
-0.057605933 -0.07477488 0.048513524 0.07371477 -0.031306695 -0.02675007 -0.026338376 0.064649634
-0.007446483 -0.048663437 -0.0020419508 0.046353124 0.06467601 -0.051923547 -0.023215435 -0.034971535
-0.033957608 0.05292488 -0.06347741 0.00846339 -0.017153926 0.056231312 -0.015404098 -0.031250924
0.050662868 0.015347123 0.051223494 -0.05613748 -0.06289057 -0.049971715 0.016960986 -0.07249139
0.02436918 -0.0722342 0.03354688 0.007671833 -0.013397321 -0.008385822 0.077071674 0.010146596
0.023702703 -0.043021567 0.04258655 -0.036160145 -0.067153275 0.07649874 -0.066383876 0.0033390075
-0.024239726 0.0022957474 -0.019956063 0.04365132 -0.025229946 0.034774676 -0.0515562 -0.0029682964
0.0025712624 -0.035224557 -0.068228304 -0.019757845 -0.017861761 0.01776144 -0.019076519 -0.035338674
0.056064613 -0.031947743 -0.08034042 0.06231845 0.007917233 -0.018232964 0.01823631 -0.025108483
-0.074766025 0.057358302 0.05880245 0.040496178 0.008448094 -0.05966595 0.0405417 0.03390921
0.067924835 -0.021859705 0.064550065 -0.008313417 0.011180937 -0.01915178 0.048034944 0.06575119
0.06680373 0.034970514 -0.04107279 0.013336815 0.052115165 -0.04280896 -0.016598195 0.042563982
0.039265394 0.06513252 0.06326469 -0.03648213 -0.0052385554 0.044286095 -0.059127122 0.0013289824
-0.022385262 0.01030118 -0.006551005 0.04699541 0.04076057 0.017069861 -0.071973205 -0.011162147

sequential_2/dense_4/Relu_bias f4 [128]
00000000: 0000 0000 0000 0000 0000 0000 0000 0000
00000010: 0000 0000 0000 0000 0000 0000 0000 0000
00000020: 0000 0000 0000 0000 0000 0000 0000 0000
00000030: 0000 0000 0000 0000 0000 0000 0000 0000
00000040: 0000 0000 0000 0000 0000 0000 0000 0000
00000050: 0000 0000 0000 0000 0000 0000 0000 0000
00000060: 0000 0000 0000 0000 0000 0000 0000 0000
00000070: 0000 0000 0000 0000 0000 0000 0000 0000
00000080: 0000 0000 0000 0000 0000 0000 0000 0000
00000090: 0000 0000 0000 0000 0000 0000 0000 0000
000000a0: 0000 0000 0000 0000 0000 0000 0000 0000
000000b0: 0000 0000 0000 0000 0000 0000 0000 0000
000000c0: 0000 0000 0000 0000 0000 0000 0000 0000
000000d0: 0000 0000 0000 0000 0000 0000 0000 0000
000000e0: 0000 0000 0000 0000 0000 0000 0000 0000
000000f0: 0000 0000 0000 0000 0000 0000 0000 0000
00000100: 0000 0000 0000 0000 0000 0000 0000 0000
00000110: 0000 0000 0000 0000 0000 0000 0000 0000
00000120: 0000 0000 0000 0000 0000 0000 0000 0000
00000130: 0000 0000 0000 0000 0000 0000 0000 0000
00000140: 0000 0000 0000 0000 0000 0000 0000 0000
00000150: 0000 0000 0000 0000 0000 0000 0000 0000
00000160: 0000 0000 0000 0000 0000 0000 0000 0000
00000170: 0000 0000 0000 0000 0000 0000 0000 0000
00000180: 0000 0000 0000 0000 0000 0000 0000 0000
00000190: 0000 0000 0000 0000 0000 0000 0000 0000
000001a0: 0000 0000 0000 0000 0000 0000 0000 0000
000001b0: 0000 0000 0000 0000 0000 0000 0000 0000
000001c0: 0000 0000 0000 0000 0000 0000 0000 0000
000001d0: 0000 0000 0000 0000 0000 0000 0000 0000
000001e0: 0000 0000 0000 0000 0000 0000 0000 0000
000001f0: 0000 0000 0000 0000 0000 0000 0000 0000
0.0 0.0 0.0 0.0 0.0 0.0 0.0 0.0
0.0 0.0 0.0 0.0 0.0 0.0 0.0 0.0
0.0 0.0 0.0 0.0 0.0 0.0 0.0 0.0
0.0 0.0 0.0 0.0 0.0 0.0 0.0 0.0
0.0 0.0 0.0 0.0 0.0 0.0 0.0 0.0
0.0 0.0 0.0 0.0 0.0 0.0 0.0 0.0
0.0 0.0 0.0 0.0 0.0 0.0 0.0 0.0
0.0 0.0 0.0 0.0 0.0 0.0 0.0 0.0
0.0 0.0 0.0 0.0 0.0 0.0 0.0 0.0
0.0 0.0 0.0 0.0 0.0 0.0 0.0 0.0
0.0 0.0 0.0 0.0 0.0 0.0 0.0 0.0
0.0 0.0 0.0 0.0 0.0 0.0 0.0 0.0
0.0 0.0 0.0 0.0 0.0 0.0 0.0 0.0
0.0 0.0 0.0 0.0 0.0 0.0 0.0 0.0
0.0 0.0 0.0 0.0 0.0 0.0 0.0 0.0
0.0 0.0 0.0 0.0 0.0 0.0 0.0 0.0

sequential_2/dense_5/MatMul/ReadVariableOp/transpose f4 [10, 128]
00000000: f0a2 35bc b916 32be e0aa ffbd 4dba 3cbe
00000010: 1ae1 bf3d 4428 4fbe 34a5 8dbd 861c b43d
00000020: 6a2b d73d a0b1 ef3c 6683 8f3d 874f 173e
00000030: e0e1 003c 5dc6 413e 52af dfbd 902e 483c
00000040: 3324 533e f1e9 163e 4372 3dbe 2389 203e
00000050: f677 8fbd 5e48 c9bd 229f ad3d cc2e 15be
00000060: fd03 2d3e 4c13 073d cdbd 433e 0bfb efbd
00000070: 00bd 4dbb a626 b5bd 9ac6 a73d 2e0a 0fbe
00000080: 821d 26be c62f bc3d 6e98 ddbd c50e 10be
00000090: 30a0 babc 56dd 15be 5141 1c3e 1c3c 5c3d
000000a0: 95f3 193e d167 383e 94e1 423d c729 20be
000000b0: cc68 323d 20f1 85bd 181b f13c ec25 533d
000000c0: 9c98 573d b063 253d 17ac 0f3e a6be b93d
000000d0: bf02 1c3e 26fb 813d 1409 7abd 77a5 2e3e
000000e0: d0c1 3ebe 7003 4c3c 1036 91bc 780a 103d
000000f0: 8bf8 263e a812 c8bc 5155 1c3e 0432 173d
00000100: 8835 cb3c 2bf3 303e 0058 dcb9 1b78 46be
00000110: 08b2 e23c 0856 f0bc 4028 dcbb 809a b3ba
00000120: 9d24 403e 4d11 353e b664 e2bd 7255 2abe
00000130: d6a5 e63d 2046 f8bc 38cc aabd c287 d33d
00000140: 62a0 32be 743e 3c3d f494 293d 089c cd3c
00000150: 5f45 4a3e dc42 29bd b4f4 7e3d 6b75 1d3e
00000160: 40ae 3bbd e034 fb3c 07eb 3cbe 2d20 1c3e
00000170: 0f00 113e 0b24 273e 80c6 f8bb 80bf 2ebb
00000180: ea0b 1bbe ea27 a23d c088 49bc 4434 38bd
00000190: b172 093e 281e f9bd e66b e1bd bbe4 513e
000001a0: 7c69 a1bd 6083 e03b 2c1d 01be 1815 74bd
000001b0: 63ba 503e 802b e53a f622 9cbd 00e0 d83c
000001c0: d7d6 2dbe 6fca 443e 76b6 c8bd a555 4c3e
000001d0: 3412 7b3d d8a1 0cbd 2546 113e aae8 29be
000001e0: e46f 39be 9cdc 28be 8b52 4b3e ca9f d73d
000001f0: b094 6fbd 70ce fdbc a0e4 eabb 2b9e 1cbe
00000200: bd60 1a3e 4288 26be d031 0fbe 6dc8 4e3e
00000210: 242d f1bd 30a7 51bd b9dd e1bd 166f f93d
00000220: 33e6 21be 527a f93d 612a 153e daf9 f1bd
00000230: 9279 b93d c743 53be 7d14 e3bd c41f 563d
00000240: e52d 393e ee3e b33d 1c45 65bd e06e 113c
00000250: 5569 063e d6fe d6bd 78ff babc b00f 04bd
00000260: d2ec 833d d077 ffbd 52ff 35be 1eb1 c93d
00000270: 0cbe 28be f8e0 0ebd e177 11be 5bd4 363e
00000280: cec5 b23d 2420 3c3d 60ca 90bb 4ab3 fe3d
00000290: 7a7e 12be 6af1 bf3d 27e8 0ebe d07a 1dbe
000002a0: 9bb2 303e 88c6 70bd aa3c 28be e047 3abd
000002b0: cdf5 253e 7082 2fbe abfb 47be 7f93 443e
000002c0: 9ae4 02be e4e8 7e3d 9c40 0abe 76c5 993d
000002d0: 0168 23be 74a3 613d 582b f33c c651 d53d
000002e0: 4057 cb3b 13d1 043e fb96 293e 1426 733d
000002f0: 20de ddbd 6245 30be f2e3 c13d e2b5 38be
00000300: 0b58 e9bd ac7f 2e3d 2515 1c3e e227 f43d
00000310: d443 32bd 0ce1 a2bd 8650 f43d 6c43 523d
00000320: 7537 0d3e 8098 b53a 7a23 3bbe fed7 3ebe
00000330: cd59 143e bde3 dfbd 986c debc 9259 e6bd
00000340: 0021 0f3c c061 ef3c 7a2d 89bd 875e 2a3e
00000350: b91a 103e 1bbd fbbd 8b90 1a3e 3968 143e
00000360: daec 1bbe d6b6 a73d 00c2 dd39 c05b f83b
00000370: a8c0 5abd 7829 d7bc 377a dbbd 7ce2 9cbd
00000380: 7c12 1d3d dd97 3b3e 7271 87bd cb09 383e
00000390: 7219 b13d c068 03be 6335 413e 00f3 45bd
000003a0: 583c 01be 00e6 74ba 4020 d8bc cccc 36be
000003b0: 8ca7 a3bd 0ceb 053d 18cd 25bd 727f fc3d
000003c0: 93a9 2b3e 7e58 c83d fee8 993d 5e51 923d
000003d0: 61ae 263e 05f6 36be ab9c b6bd 8400 44be
000003e0: 10ad 5dbc ff03 18be 2ca2 023d b591 3c3e
000003f0: f98f 113e f055 b6bc 40cb b1bc 5ffa 2f3e
-0.011086211 -0.1739148 -0.12483764 -0.18430443 0.093691066 -0.20230204 -0.069162756 0.08794503
0.105063275 0.029259503 0.07007484 0.14776431 0.007866353 0.18923326 -0.109221116 0.012218133
0.20619278 0.14737679 -0.18500619 0.15677314 -0.070053026 -0.09828256 0.08477618 -0.14568633
0.16896053 0.032977387 0.19115372 -0.117178045 -0.003139317 -0.08845262 0.08192177 -0.13968727
-0.16222194 0.091887996 -0.10820089 -0.14068134 -0.022781461 -0.14635214 0.15259291 0.053768262
0.15034325 0.18008353 0.04757841 -0.15640937 0.043556973 -0.065401316 0.029431865 0.051549837
0.052635774 0.040378273 0.14030491 0.090695664 0.15235423 0.06346731 -0.061043814 0.17055307
-0.18628621 0.012451991 -0.017725974 0.035166234 0.16305749 -0.024422958 0.1526692 0.036912933
0.0248058 0.17280261 -0.00042027235 -0.19381754 0.027672783 -0.029337898 -0.0067186654 -0.0013702661
0.18763967 0.17682381 -0.11054365 -0.16634157 0.112620994 -0.030306876 -0.08339733 0.10328628
-0.17443994 0.045957997 0.04140182 0.025098816 0.19753025 -0.041323528 0.062245086 0.15376823
-0.045820475 0.030664861 -0.18449031 0.15246649 0.14160179 0.16322343 -0.0075920224 -0.0026664436
-0.15141264 0.07917769 -0.01230067 -0.04497172 0.13422658 -0.12163955 -0.11006908 0.2049741
-0.07881448 0.0068515986 -0.12608784 -0.05959043 0.20383601 0.0017484277 -0.07623856 0.026473999
-0.16976486 0.19217847 -0.09800427 0.19954546 0.061296657 -0.034334034 0.14186914 -0.1659266
-0.18109089 -0.16490406 0.19855706 0.10528524 -0.05849141 -0.030982226 -0.0071683675 -0.15294711
0.15075965 -0.16262916 -0.13983846 0.20193644 -0.11776188 -0.051184833 -0.11028618 0.12179391
-0.1581047 0.12181534 0.14566948 -0.118152335 0.09056391 -0.20631324 -0.11087892 0.052276388
0.18083914 0.08752237 -0.05597411 0.008876532 0.13126118 -0.10497825 -0.022826895 -0.032241523
0.06441654 -0.12474024 -0.17773178 0.098482355 -0.16478747 -0.034882516 -0.14205886 0.17854445
0.087291345 0.04592909 -0.004418656 0.124365404 -0.1430606 0.09372218 -0.13955747 -0.1537888
0.17255633 -0.058783084 -0.16429392 -0.0454787 0.16207047 -0.17139602 -0.19529597 0.1919689
-0.12782517 0.06223382 -0.13501209 0.07508366 -0.15957643 0.05508752 0.029683754 0.10415988
0.0062054694 0.1297038 0.165615 0.059362486 -0.108333826 -0.17213967 0.09467305 -0.18038133
-0.11393746 0.042602226 0.15242441 0.119216695 -0.043521717 -0.079530805 0.11929421 0.05133383
0.13790686 0.0013854653 -0.18275252 -0.18637082 0.14487381 -0.109321095 -0.02715139 -0.11247553
0.008735895 0.029221416 -0.06698127 0.16637622 0.14072694 -0.122919284 0.15094201 0.14492883
-0.1522707 0.0818917 0.00042296946 0.007579297 -0.053406388 -0.026264891 -0.1071667 -0.07660386
0.038347706 0.1831965 -0.06613435 0.17972486 0.086474314 -0.12832928 0.18868022 -0.048327446
-0.12620676 -0.0009342134 -0.026382565 -0.17851561 -0.079909414 0.03269486 -0.040478796 0.12328996
0.16763906 0.097825035 0.07515143 0.07144426 0.16277458 -0.17867287 -0.08916601 -0.19140822
-0.013530031 -0.14845274 0.03189294 0.18414958 0.14215077 -0.022257775 -0.021703362 0.17185353

sequential_2/dense_5/MatMul_bias f4 [10]
00000000: 0000 0000 0000 0000 0000 0000 0000 0000
00000010: 0000 0000 0000 0000 0000 0000 0000 0000
00000020: 0000 0000 0000 0000
0.0 0.0 0.0 0.0 0.0 0.0 0.0 0.0
0.0 0.0
